results/r7/MarbleMazeWalk/checkpoint.pt (torch, 455735 bytes, 40 tensors)

discrete_act_size_vector f4 [1, 2]
00000000: 0000 4040 0000 4040
3.0 3.0

network_body._body_endoder.seq_layers.0.weight f4 [128, 9]
00000000: b7d7 d83e b432 7fbe 043b 153d dd63 e3be
00000010: 5148 273f 7681 f2bc ab29 923e a046 8c3e
00000020: 04f5 7a3e 0175 3dbf 797e e4be 1df4 1abf
00000030: bf2b 5e3e 1c5b b8be 957d 923e de92 c63d
00000040: 9cd0 b33c ca6a 20be 9ce3 3f3e c097 383e
00000050: ef8c fdbd 9c8a b7be 25ca 95be c53c e9be
00000060: 8c69 c7be 3d02 d3be d8c7 983d 621c c1be
00000070: 8273 003e e3ef 363e 9466 ccbe 677f ffbd
00000080: f4f1 e5bd 6bea a53e 19b4 193e 2bd5 e2be
00000090: f8a2 283e 0d7a 4f3e b608 65be fba9 e4be
000000a0: 77f7 9dbe fe30 6dbe 25c2 1ebf cd71 ba3e
000000b0: cae6 e33e 4ffa fb3e c7d0 72bd 28a1 a7be
000000c0: fc5e 37be 4caa 1d3f 26cf 723e 3990 15bf
000000d0: 1edc cabd 5746 08be be4c 98bd eba6 853e
000000e0: 2615 91be 1b6c 77be 6d02 52bf 4586 08bf
000000f0: ddca a4be d265 353e 3af6 9dbe 86ad aebd
00000100: 3321 4d3e 46e0 503e 02bc 9cbe 2f57 3ebf
00000110: 238c e2be f23b 8abe ab97 d73e 6645 e4bd
00000120: 53ab 18bf 1bbc b5be 3ca1 323e f9aa 08be
00000130: 9781 7cbf 5de6 84bd 9ec6 793d 8112 703d
00000140: 0901 203f 131d f8be 7a33 b93e 52fe 3b3e
00000150: 936d fc3e 4632 46bf 7958 b03e da52 71bf
00000160: 33a1 d2be 53fd 343e a987 333f 5f4e 913f
00000170: 64d8 67bb ca0f f1bd b926 0b3f dcb3 1abf
00000180: b3a8 b7be cf0a ec3e 9691 a5be 74b8 c23d
00000190: e90e a3be 4e40 77be 084d 4a3f 76fb 20be
000001a0: 16c9 283d 7ab7 65be 96b1 81be 914e 5ebe
000001b0: 752a 28bc e2f3 03bf 654f ac3c 4ad1 84bd
000001c0: b5b0 89bf 356c dbbe 0baa f1be 7e94 0bbe
000001d0: 5d7a 3fbe bc11 0ebf 1309 56be 04c8 863d
000001e0: bcf2 aabd 1ef9 39bc 3fe3 70be e774 f93e
000001f0: 36bb e3bd 228b 983d 55e7 ca3e 88a4 ffbe
00000200: d85b d0bd 1228 2abf 4601 983e e2b0 063e
00000210: d8c8 2dbd 65a5 80be db03 24bf 4a25 c23e
00000220: 9043 8b3c 5a5b 91be fb0f 68bf 17d6 fc3e
00000230: b8a8 2dbe 683c 973d cd38 1cbf 4bb5 353f
00000240: 9aec 85be acc2 b53e b8ea 33be 8864 863e
00000250: d454 cabd 76f9 cc3d 203a 4bbf 19ec edbe
00000260: 0887 d6bd 970d d2be 72a3 04bf ea81 dd3c
00000270: b931 4bbe de27 a63e b075 d5be 405a 64be
00000280: 2980 243f b9e2 193e 47aa 0dbf 3324 e73e
00000290: d722 633e ae4a e9be 93a7 53bf 28b3 b83e
000002a0: b6f2 5f3e a61c a43c 35f5 433f 0cfb 47bf
000002b0: 3f41 8c3e 5dde a1bd 2cd3 dcbe 2f97 5e3f
000002c0: f9f0 8a3e 5d29 a13d 186a 923e f5b6 a6be
000002d0: 9e7c b13e ea61 713e 6ccb 913e 7346 5ebe
000002e0: 8b4b ac3d e9d1 4c3e 3c16 62be 9fde 2a3e
000002f0: 65e6 9cbe 6bc6 163d 4873 78be bff8 073e
00000300: bf06 a93e e6dd 8dbe f1b7 61be 45dd 173f
00000310: 4ea7 ef3d 40e6 d0bd 1a38 dfbd acb3 523d
00000320: 4503 393e f7e6 bfbe 1fc6 3dbe 6e29 a73e
00000330: 64fb 1c3f 7879 c03e aac2 e83e e728 97be
00000340: f487 c0bd 0e96 023c 904c 87be d383 42bf
00000350: 39c3 e1bd 11bf 433f ca1f 72bc adb2 643e
00000360: 76ba 353d 77e0 2bbf 0507 b2be b505 acbe
00000370: 5143 9d3c 1d56 3bbe d03b 053c 8c21 6a3e
00000380: 7438 4dbd 91e4 d63e 92fe 823e 989e 8c3d
00000390: 22fa cb3e 4cfe 553e b9cb cebe bb6d a5bd
000003a0: 2e63 563e 34c2 8dbe ef1b c63e dabc 1bbe
000003b0: 72b3 34be 817f 0fbf e99f b6be 527a 313e
000003c0: 7555 7bbd 3582 e23d 0e30 d8be 3883 dabe
000003d0: b1fc 02be cb5e 113e e390 c53d 3b67 4bbf
000003e0: de28 0dbe db31 7cbe 284a 0a3e 9cd7 1dbd
000003f0: 827c 113e 4e32 813e 22c2 9b3e 1c0b 3b3d
0.42352077 -0.24921685 0.036433235 -0.44412127 0.6534472 -0.029602747 0.28547415 0.27397633
0.24507529 -0.7400666 -0.4462774 -0.6052874 0.21696375 -0.3600701 0.28611436 0.096959814
0.021950059 -0.15665737 0.1873917 0.18026638 -0.123803966 -0.35847938 -0.29255787 -0.45554176
-0.38947713 -0.41212645 0.07459992 -0.37716967 0.12544063 0.17864947 -0.3992201 -0.12475472
-0.112277895 0.3240541 0.15010108 -0.4430326 0.16468418 0.20261402 -0.22366604 -0.44660935
-0.30852863 -0.2316322 -0.6201499 0.36414948 0.44512016 0.49214408 -0.059281137 -0.3274014
-0.17907327 0.6158798 0.23711833 -0.5842319 -0.09905265 -0.13308083 -0.074365124 0.2610391
-0.28336447 -0.24162333 -0.8203495 -0.5332988 -0.32186022 0.17714623 -0.30851918 -0.08529191
0.20032196 0.20398054 -0.3061219 -0.7435178 -0.4424754 -0.2699886 0.421079 -0.11146049
-0.5963642 -0.35495076 0.17444319 -0.13346471 -0.9863524 -0.06489251 0.06098043 0.058611397
0.6250158 -0.48459682 0.36172086 0.18358734 0.49302348 -0.7742046 0.344425 -0.94267046
-0.4113861 0.1767476 0.70128876 1.1352042 -0.0035376782 -0.1177059 0.5435596 -0.60430694
-0.35870895 0.46101996 -0.32337636 0.09507838 -0.31847313 -0.24145624 0.7902379 -0.15720925
0.041207395 -0.22433272 -0.253308 -0.21709658 -0.010264029 -0.5154401 0.021033952 -0.06485231
-1.0757052 -0.42855993 -0.47200045 -0.13630864 -0.18699022 -0.5549581 -0.20901899 0.06581119
-0.08347079 -0.011350898 -0.23524188 0.48722002 -0.11119692 0.074484125 0.39629617 -0.49930215
-0.10173768 -0.6646739 0.29688472 0.13153413 -0.042427868 -0.25126186 -0.6406838 0.37919074
0.01699999 -0.28390008 -0.90649384 0.49382088 -0.16958892 0.073845685 -0.6102417 0.70979756
-0.26157075 0.35500085 -0.17570007 0.26248574 -0.09879461 0.100085184 -0.79385567 -0.4646919
-0.10474974 -0.41025993 -0.518119 0.027039487 -0.19843186 0.3245229 -0.4169135 -0.22300053
0.64258057 0.15027894 -0.5533795 0.45144805 0.22181259 -0.4556479 -0.8267757 0.36074185
0.2186993 0.020033192 0.7654603 -0.7811744 0.2739353 -0.079037406 -0.4312986 0.8694944
0.27136973 0.078692175 0.28596568 -0.3256146 0.34665388 0.23572508 0.2847551 -0.21706562
0.08412846 0.2000195 -0.22078794 0.16686486 -0.30644527 0.03681032 -0.24262726 0.13278483
0.3301296 -0.27708358 -0.22042824 0.59322006 0.11701833 -0.10200167 -0.108993724 0.05144088
0.18067653 -0.374809 -0.18532608 0.32648796 0.6132109 0.37592673 0.45461017 -0.29523394
-0.09400931 0.007970346 -0.264256 -0.759824 -0.11023564 0.7646342 -0.014778087 0.22333784
0.044367276 -0.6713938 -0.3477098 -0.33598104 0.019197138 -0.18294568 0.008131936 0.2286436
-0.050102666 0.41971257 0.25584847 0.06866187 0.39839274 0.20897788 -0.40389803 -0.0807757
0.20936272 -0.27687228 0.38693187 -0.1520876 -0.17646578 -0.5605393 -0.35668877 0.17331818
-0.061360795 0.11059991 -0.42224163 -0.42678237 -0.12791707 0.14196317 0.096467756 -0.7945439
-0.13785121 -0.24628393 0.13504851 -0.0385357 0.14207652 0.25233692 0.3042155 0.04566489

network_body._body_endoder.seq_layers.0.bias f4 [128]
00000000: bb46 49bd 5ecd 283e 3f77 613c 1380 37bd
00000010: c615 1f3e cd20 61bc 7934 30bd c06e 04bd
00000020: 3dff 29be 9fcf b3bd 9ea4 d63e 2920 2f3e
00000030: aa8c babc 83af 6a3c 5ba3 f8bd 4760 943d
00000040: fc08 36be 89be 10be 557b 1bbe 2d54 9cbd
00000050: 0494 4bbc 9322 473d fd98 a3bd 8a8e a13d
00000060: 7f84 9bbd 5b4e 003e ab8b 91be c7b3 11be
00000070: 823b 6b3d a9b6 6bbe b8c9 73bd de45 063e
00000080: 5e8b 6bbe 6d94 013d ea4e 23be 1b4f f73c
00000090: adcf 0dbd 88b1 f7bd 1e15 743e 0ca8 a23d
000000a0: 9a3e c7bd dd50 fbbd 347f dc3d 0a64 eebc
000000b0: 0833 e33d c43f f23d 131d 623d 023b ac3e
000000c0: 4541 663e 8262 e1bc fbc2 cb3c 6c79 053c
000000d0: 8d0c 8fbd 5647 50be 60bf 6fbe 835b 143d
000000e0: 6462 983d 6c56 ae3d f0da 58bd 8f85 933d
000000f0: 6c6b 1c3b de19 febc 9d20 22be 39f7 133d
00000100: 885e aebd de37 783e 0a68 1c3c 59fa 103e
00000110: cdbc 2fbe a482 823e f7a0 bd3d f697 be3d
00000120: db02 e5bd 2aa9 363e f4ff 15be b5f0 25bd
00000130: 685e 013d cac8 7cbe ffe2 16be b970 1c3e
00000140: 6492 97bd 81ab abbd 3e3d 86bd c4af 61bd
00000150: dad0 633e e94d 23be 169a 2abe a0e2 123d
00000160: 0416 0f3c c658 5d3d 101f f9bd 09be c13c
00000170: 88a0 12bc 6bca c7bd 3b45 54bd cc02 1ebc
00000180: 91a2 a23a 2c7f 95be 7da2 c23d 8d3d fb3c
00000190: 643a 2fbb 79fd 723c 6d43 3a3d dbcb 19be
000001a0: e8e5 d7bd 426a edbd 5c9e 27bd 264b 3dbe
000001b0: 1951 233e 9bbf 00bd 5ac4 38be 66f5 8cbd
000001c0: cb11 553e d988 703e 78d5 bd3d 4863 39bc
000001d0: 94f4 09bd 4569 b33c 32c5 ac3d a9d4 88bd
000001e0: f4f4 e2bc cda1 06be 7872 a3bd 99c0 4c3e
000001f0: dcad e8bc c60c 7bbd bbcb e0bd 0182 3cbc
-0.04913972 0.16484591 0.013761341 -0.044799875 0.1553565 -0.0137407305 -0.04301879 -0.032332182
-0.16601272 -0.08779835 0.41922468 0.17102112 -0.022772152 0.014324072 -0.121405326 0.07244926
-0.17776865 -0.14135183 -0.15183766 -0.07633243 -0.012425426 0.048616957 -0.079881646 0.07888515
-0.07593631 0.1252989 -0.2842687 -0.14228736 0.057429798 -0.23018898 -0.059518546 0.1311259
-0.23002383 0.03163569 -0.15948072 0.030189088 -0.034621883 -0.12094408 0.2383618 0.07942209
-0.09728737 -0.12271283 0.107664496 -0.029100437 0.11093718 0.118285686 0.05520351 0.3363877
0.22485836 -0.027512792 0.024873247 0.008146625 -0.06984816 -0.20339713 -0.23412848 0.036220085
0.074406415 0.085125774 -0.05294317 0.07203209 0.002386774 -0.031018194 -0.15832753 0.03612444
-0.08514124 0.24240062 0.009546289 0.14158 -0.17161866 0.25490296 0.09259217 0.09306328
-0.11182185 0.17837968 -0.1464842 -0.04051276 0.031584173 -0.2468597 -0.1473503 0.15277375
-0.07400969 -0.08382321 -0.0655465 -0.055099264 0.2224764 -0.15947689 -0.16660342 0.035860658
0.008733276 0.05403974 -0.12164128 0.023650186 -0.008949406 -0.09755405 -0.051823836 -0.0096442215
0.0012408068 -0.29198587 0.095036484 0.030668998 -0.0026737684 0.01483094 0.04547446 -0.15019171
-0.10541898 -0.11592533 -0.040922508 -0.18485698 0.15948905 -0.03143273 -0.18043652 -0.068827435
0.20807569 0.23489703 0.092692316 -0.011315174 -0.033680514 0.021900782 0.084360495 -0.06681187
-0.027704693 -0.1314766 -0.079808176 0.19995345 -0.028403215 -0.06129148 -0.109763585 -0.011505605

network_body._body_endoder.seq_layers.2.weight f4 [128, 128]
00000000: 4a5f 9e3c c53a d23c 26f9 4cbe 2676 98bd
00000010: 1032 fabd cb8d 90be 164f 503e f8d8 1ebe
00000020: cbf3 80be 19b0 64be d10d 24bd a7a0 573e
00000030: 6e9c 24be b809 893d bc01 36be aa1d 6fbd
00000040: 445d e23d f220 34be 8470 d9be 3aa0 0f3e
00000050: d898 eb3c 418f 763e 7cdc d93d 1c50 9f3d
00000060: e454 79be 498a f6bd cb97 27be a5f8 2fbd
00000070: 4456 5c3e bb35 183e 80fd 0abe e3c5 493d
00000080: f242 933a 13cb abbd 6875 a2bc 9e28 403e
00000090: d9ef d3bd 8845 30be 2c64 973e 1c06 8abe
000000a0: 36e6 7a3c 1018 0bbe d2bf a1bd 7a37 863e
000000b0: 52e2 8ebe a469 67bd e49d f43d 9403 13be
000000c0: 40a8 023a 7118 23bd f1bf aabd 659f 0b3e
000000d0: 2344 cb3d b87c 963c e329 903d 793e e53c
000000e0: cf6a 0abc b75a 023e 6bef 39bd ddbe 3ebe
000000f0: e6ca 1f3e 66ab 943c 947d babd bdda 9fbd
00000100: b823 6e3e f97a c1be 66f3 393e dd6f cf3d
00000110: 7599 8abd b7bf 68be 2d6a 9a3c 4249 1abe
00000120: dd2b e43d 51a6 ca3d 91d4 ecbb 60da 26be
00000130: 659c 433e c642 5a3b cfcc c3bd a0a2 0cbe
00000140: 3bbb 19be bc01 8a3e bd66 6cbe b505 6abd
00000150: b50b d13d 681f 96bd bbfe efbd a1ee c53d
00000160: fb28 8dbd 307f 5f3c 18da e4bc 5314 c7bd
00000170: 2bb5 193d 0f6f 83bd 29f8 76be aa0c 613d
00000180: c693 14bd f066 b6bd 6344 b73d 77c2 1e3d
00000190: d289 4f3c 83ec 083e 2e66 cbbe 1464 e53d
000001a0: 99b0 42bd 3816 9dbd bb60 a3bd 81e5 cc3d
000001b0: d7db f63c 56de 883d bee3 87be fbaf 6dbd
000001c0: 4987 49be c2e0 503d c733 b03c 2cf1 3f3e
000001d0: c2ae a2bd b7ab d6bc 7adf acbe f7b2 3abd
000001e0: ec8d 14be a192 4cbe cb3c 1bbd 6c60 873e
000001f0: 9f79 063e 2a68 a03c 61b6 8a3c 5e5a 8dbe
00000200: 1a1a 2cbe 7488 5a3d 4e3b 43bd fdc4 2a3d
00000210: 65ce 52bc 52a7 90be 5ff7 7f3d bb0a 713d
00000220: 510a 16be 1f6b 31bd 969e f3bd 331a f3bd
00000230: 1668 88be 74b7 2a3d 70f9 303d d062 b6bd
00000240: d579 b8be 0cc5 5fbe f29e 243d ef7a 02be
00000250: 6326 f53b b303 743d 2178 f83c 6cb0 bbbd
00000260: d721 e0bd 2aa8 9dbc e8e3 8dbc e055 82bc
00000270: 20a0 e2bb 637c b6be 4757 50be 57cd 85be
00000280: b9bc 63bd 0281 16be 8d72 e63d 14f7 82bc
00000290: 1ffd 7ebe a861 803d d512 96bd da4b 20bc
000002a0: 8c66 6dbd 3efa b7bd 615b 01be aa22 cebe
000002b0: b767 b3bd d7b5 b8bd 364c 3dbe deb3 323d
000002c0: 5d73 6e3d 1dbe d23d 968a e33c 5c88 203d
000002d0: 0aa5 20be bf45 a4bd 15c1 c93c 2201 2bbe
000002e0: 523b 88be 9a0b e33d 8260 febd 1443 2cbd
000002f0: 7924 15be 74d9 a8be 0964 3dbe 9797 b7bc
00000300: bd6d 003e f85e a0be 02ef 843c 5cab 48bb
00000310: 19d4 6ebd eac2 2a3c 1ca7 ff3c 19ae 61be
00000320: c176 8abd 57e1 64be f808 29bd 257f febc
00000330: ea42 b0bd 721c 0c3d 24ca 73be affe 133e
00000340: 0e85 80bd a0f0 a8bb b169 1abe 1441 10bd
00000350: f7e5 b33d b17c f7bc 5f94 c73c 18e6 c83b
00000360: 6359 f23b e632 823b 71fc 8cbe c856 f93d
00000370: 8374 69bd 2265 6cbd c8c5 fe3d 0431 053e
00000380: 0c61 94be b86c 1cbe 876c 823d bc12 d53d
00000390: b801 bb3b 5739 4cbe 7466 89be 11eb ab3c
000003a0: 4b77 21bd 7231 3b3e 1e20 0cbc ef2a d43d
000003b0: 0f15 18bd c93b b3bc 1fcb 743c 05c2 b63d
000003c0: 4157 56be aefc 123e dc14 89bd 4500 f0bd
000003d0: 4b50 fdba 0d73 ce3d 345a bebd ae26 0ebe
000003e0: 16f2 c6bd 587c dfbd 5c39 2cbb 770b f7bb
000003f0: 5357 6ebe fb80 68be e714 49bd 326c afbe
0.019332547 0.02566279 -0.20016918 -0.0744441 -0.1221658 -0.2823318 0.20342669 -0.15512455
-0.25186 -0.22332801 -0.04005224 0.21057378 -0.16075298 0.06691307 -0.17774099 -0.0583779
0.11052945 -0.17590693 -0.42468655 0.14025965 0.028759405 0.24078085 0.10637757 0.077789515
-0.2434879 -0.120380946 -0.16366498 -0.042961735 0.21517283 0.14864247 -0.13573265 0.049260985
0.0011235161 -0.08388343 -0.019831374 0.18765494 -0.10348482 -0.17214024 0.29568613 -0.26957786
0.015313676 -0.13583398 -0.07897915 0.262142 -0.27907044 -0.05649723 0.11944178 -0.14356834
0.00049841776 -0.03981823 -0.08337391 0.13635023 0.099251054 0.018370017 0.07039239 0.02798389
-0.008448317 0.12729917 -0.045394342 -0.18627496 0.15604743 0.018148135 -0.091059834 -0.07805393
0.23255813 -0.37789133 0.18159255 0.10128758 -0.06767551 -0.22729383 0.018849457 -0.15067008
0.11141179 0.098950036 -0.0072274883 -0.16294241 0.19102629 0.003330396 -0.095605485 -0.13733912
-0.15012829 0.26954448 -0.23086067 -0.05713435 0.10207311 -0.07330209 -0.11718508 0.096646555
-0.06892582 0.013641164 -0.027936026 -0.097206734 0.03752629 -0.06417667 -0.24118103 0.054943718
-0.03627374 -0.089063525 0.089485906 0.038759675 0.012667136 0.13371472 -0.39726394 0.11200729
-0.047531698 -0.076702535 -0.07977434 0.10004712 0.030134125 0.06683032 -0.2654094 -0.058029156
-0.19680513 0.050995596 0.021509064 0.18744344 -0.07943489 -0.026204927 -0.3376425 -0.04558083
-0.14507264 -0.1997781 -0.037899774 0.26440752 0.13132332 0.01958092 0.016932668 -0.27608007
-0.16806832 0.053352788 -0.04766398 0.04169177 -0.012866591 -0.28252655 0.06249177 0.058848124
-0.14652373 -0.04331505 -0.11895482 -0.118702315 -0.2664191 0.04167886 0.043206632 -0.08905566
-0.3603045 -0.21852511 0.040190645 -0.12742208 0.0074813827 0.05957384 0.03033072 -0.09164509
-0.109439544 -0.019245226 -0.017320588 -0.015910089 -0.006916061 -0.35641775 -0.20345794 -0.26133224
-0.0555999 -0.1469765 0.112523176 -0.015986957 -0.24901246 0.062686265 -0.07327811 -0.009783709
-0.057959124 -0.08983277 -0.12632515 -0.40260822 -0.087600164 -0.09019058 -0.18486103 0.043628566
0.058215488 0.102901675 0.027776044 0.039192542 -0.15687957 -0.080211155 0.024628201 -0.16699651
-0.26607758 0.11086197 -0.12420751 -0.04205616 -0.14564694 -0.32978404 -0.18495192 -0.02241115
0.12541862 -0.31322455 0.016227249 -0.0030619716 -0.05830774 0.010422448 0.031207614 -0.22039069
-0.06760932 -0.22351585 -0.04126832 -0.031066487 -0.08606513 0.034206815 -0.2380758 0.14452623
-0.06275378 -0.005155638 -0.1507938 -0.035218313 0.08784097 -0.030210825 0.024362741 0.006130945
0.0073959096 0.0039733527 -0.27536348 0.12174755 -0.05699588 -0.057713635 0.124400675 0.13006979
-0.2898029 -0.15275848 0.06368356 0.10403964 0.005706992 -0.19943748 -0.26835978 0.020986112
-0.039420407 0.1828058 -0.008552579 0.103597514 -0.037129458 -0.021879094 0.014941006 0.08923725
-0.20931722 0.14354202 -0.06693432 -0.117188014 -0.0019326297 0.10080538 -0.09294549 -0.13881943
-0.09714143 -0.109123886 -0.0026279306 -0.0075392085 -0.23275499 -0.22705452 -0.0490922 -0.34262234

network_body._body_endoder.seq_layers.2.bias f4 [128]
00000000: edc6 013b bb81 b53d 6625 8cbd b28d ccbd
00000010: f7d2 b83d 0004 2dbc 39c2 f9bd a3c4 fbbd
00000020: 5e47 81be 8fdd 59bd b407 02be 8348 dd3d
00000030: 9d1f c9bc 56ba ec3c 8eb3 18bc e30a 75bc
00000040: 1389 193e f387 7fbd 9380 b33d e0f2 80bd
00000050: ab75 d53c e919 c8bc 09be a43c 9805 133d
00000060: 7a13 8e3c 7d15 133e e446 2bbd ad82 a13c
00000070: e86c 41ba 671f a93d b487 58bb 7096 9bbc
00000080: 32e1 903d 3c65 ac3d a965 0e3d 746f 13be
00000090: 4531 acbc 7cc6 9dbd f52a c63d 6bb4 0ebe
000000a0: 8969 62bd bc99 a13d 88c7 e03c 8891 383d
000000b0: fc14 be3d 8dd2 efba 6eec 50bb ff20 953c
000000c0: 6a48 bcbd 016a c43d 44c8 4fbc ee61 0a3d
000000d0: 474a 81bd f66e 653d f127 613d 2277 9a3d
000000e0: 9e98 85bc 36c9 ea3d 37db 3ebe b4e8 55bc
000000f0: e507 913d f5ba 9dbd 528d e0bc fa4d 043d
00000100: 7905 9d3d 4312 c6bc 59fc 9dbd 0af2 2cbe
00000110: 6470 663d 4fa7 11bd 7d2b d9bb 4eef 313d
00000120: 3787 9eba 74ee cc3d 9e03 a7bd 90bf 593d
00000130: 55a5 ff3c f380 cb3d dfef f1bc eb95 26be
00000140: 52f0 1cbe b2ab 8cbd b459 fbbd d4d6 b9bd
00000150: b071 b1ba 7237 8f3c 0f98 00bd 2813 60bd
00000160: 6cbd 33be 9e87 99bc 45a1 043d 220c c03d
00000170: 5252 bd3d 687c c7bc 65a6 8e3d fd77 ce3d
00000180: c5a8 fdbd 6900 bb3b 29ff 223c 6b10 07bd
00000190: 7218 74bd e81a 003d 164c 8f3d 7df9 1dbd
000001a0: b56d 173d 2c3f 193e 9ac8 a1bd 1254 6a3c
000001b0: e585 8c3c 9a60 debd 5c91 edbc 1d45 3b3e
000001c0: 75b7 813d 3a84 82bd e4ad 66bb 7ffb 103e
000001d0: dc10 9e3d 13fc 4c3c d91f 39bd 76d5 b6bd
000001e0: 71ee 90bc 8a7d 953d f598 cb3d ef37 cebb
000001f0: e965 e0bd 1acb 283d 52a1 a2bc 0091 203d
0.0019802407 0.08862635 -0.06843071 -0.09987964 0.09024613 -0.010560036 -0.12195248 -0.12293365
-0.2524976 -0.05318981 -0.12698251 0.10804846 -0.024551207 0.028897446 -0.009320153 -0.014956209
0.14993696 -0.06238551 0.08764758 -0.06296325 0.026057085 -0.024426417 0.020110147 0.035894006
0.017343272 0.14363666 -0.041815653 0.019715631 -0.0007378594 0.08257943 -0.003303987 -0.018992633
0.070742026 0.084177464 0.03476492 -0.14397985 -0.021019587 -0.077038735 0.09676162 -0.13936011
-0.055276427 0.07890651 0.027438894 0.045060664 0.09281346 -0.0018297002 -0.0031879204 0.01820421
-0.091934994 0.09590531 -0.012682024 0.0337848 -0.063129954 0.056014024 0.05496973 0.07542254
-0.016308125 0.11464159 -0.18638311 -0.013055969 0.07081584 -0.07701675 -0.027411137 0.032300927
0.076670595 -0.02417863 -0.07714147 -0.16889206 0.056259528 -0.03555995 -0.0066274987 0.04344111
-0.001209474 0.10006419 -0.08154987 0.053161204 0.031206766 0.099367045 -0.029533325 -0.16268127
-0.1532605 -0.06868686 -0.12272969 -0.09074178 -0.001353791 0.017482493 -0.031395014 -0.05470577
-0.17552727 -0.018741425 0.03238036 0.09377314 0.09244217 -0.024351314 0.06965331 0.1008148
-0.12385706 0.005706836 0.00994853 -0.03297464 -0.059593625 0.03127566 0.06996934 -0.03856801
0.03696986 0.14965504 -0.0789959 0.0143022705 0.01715369 -0.10858269 -0.028999977 0.18288083
0.0633382 -0.063728765 -0.0035198862 0.14158438 0.077180594 0.012511271 -0.045196388 -0.08927433
-0.017691823 0.07299335 0.099412836 -0.006293289 -0.10956938 0.041209318 -0.019852314 0.039200783

action_model._discrete_distribution.branches.0.weight f4 [3, 128]
00000000: 3104 94bc 0723 433c ae1e 843c 7790 c2bc
00000010: 2da4 bb3c 4148 cebc 9972 4c3d 10e6 2dbd
00000020: 3d5c 5b3c d467 183c d930 7f3d d8ef aa3d
00000030: d947 ca3b 8a0f 273d 57f6 2abd e275 d63b
00000040: edb8 02bc 28bd 83bd 7601 913c 1182 0dbd
00000050: e774 52bd 456e c0bc 211c a2bc bd48 9bbc
00000060: a7e5 9a3c 7fb0 9fbd de45 7bbd 2b3e c6bd
00000070: 133a b73d 13c5 6a3d 1c31 9bbc 92f3 8f3d
00000080: a52d 923b 88ad 943c 0a30 353b 256f b83c
00000090: 9205 31bc dabc 173d 0299 e8bb a0ad 09bd
000000a0: 8cac 0abd f9c8 86bd ff05 a0bd 9487 733d
000000b0: 5071 1e3d b97e 083c e607 9bbc 9df4 d63a
000000c0: f175 abbc bae1 2cbc 9f82 49bc e4e9 f3ba
000000d0: 5fff 42bc e0ac 113d 459a 5cbd e360 993b
000000e0: 2834 0e3c 4f19 9ebc 5264 ff3b 51df 49bc
000000f0: 1b27 233c cbe9 243b a6a9 5a3d 64d4 0bbd
00000100: a2fa 513c c288 803d 3769 173c 6049 b5bb
00000110: 8e36 533d 567b 99bc f59e 36bd c9cf 4dbc
00000120: db23 82bd 9343 85bb f780 4d3d 06e7 8c3c
00000130: 4b46 b4bb ad47 bc3c dc17 1dbd eb61 cb3c
00000140: 9f54 8ebc 103a 96bc 7c65 d5bc f07b febb
00000150: fecc 8dbc 7ffd 2bbc 328e 3fbc d663 813c
00000160: 70b9 2b3d d54b f43c 9fd4 913b c05c 0bbe
00000170: 77bd 2abd 4cb8 773d 9577 093d 7444 e7bd
00000180: 0541 d7bb 917f 403d 6c3d 82bc 5f17 2c3c
00000190: b39a 2cbc 76df e03c 8e3c a1bd ac3b edbc
000001a0: ddb4 bc3c 7f14 c13d 4a32 933d 930e a83c
000001b0: b1df eb3c 8535 f93c 1632 3f3d 65c5 bd3c
000001c0: 054d 3f3d da93 1b3d 0f23 943b 0b82 a23d
000001d0: 145d 853c e154 8eb8 0842 2e3d b2d9 fabc
000001e0: b933 1d3d 94f1 123d 9aae 093d 72a8 e3bb
000001f0: 0001 42bd a04c a5ba 182a 38bc 3fa5 03bc
00000200: 4feb 37be dd1e 2d3e 2e65 bf3c 8f7a a93b
00000210: 3d57 a3bd 3557 d0bd 9683 51bd 3dac 213d
00000220: bdcc 913d 0108 f0bc 208d 26bc 0b2b 54be
00000230: 92a3 c83c ccf9 8d3d b2f0 323e f525 bc3d
00000240: 98a4 ca3d 7870 0fbe 9956 563e 1424 78bc
00000250: cf2e bd3d a086 253e 1959 9c3d 0f43 0a3e
00000260: 822e 173d 7b12 78bc 758f b6bd 0b49 123e
00000270: 3f2c 6e3c 2fa4 5f3d f97e a0bd 5d74 91be
00000280: 97f3 223e 505f aa3e 93fa cf3d 0433 92bc
00000290: 51ec 9f3d 2f28 f13c 9d7b 9d3e 2a1b fcbd
000002a0: 9255 adbc 842d debc 48ab 1b3e 2e2b 92be
000002b0: 3124 1a3e 6f23 41bc d3b8 87bd b87d 243e
000002c0: a376 6bbd 1a0f 6a3d 8cef 6dbd da3c 2c3d
000002d0: f671 92bd 0fd0 7d3d 69d8 143e be84 793d
000002e0: d73d 793d d117 17bd 26f5 233d 079a 183d
000002f0: df44 4dbe 56ca a33c d5fb b3bd 4f35 7a3e
00000300: 8d45 b63d 2f74 873d f87b 84bd ce0c ea3d
00000310: 71fd ea3d 2005 ccbd f433 9a3d 06ac 94bc
00000320: b185 e73d ed8c f93d 88da d63c b419 d13d
00000330: 1a9e b33d 9392 263e a47f 85bd 0353 ab38
00000340: 7373 233e d3ab ccbd 7d68 043e cf3a 0dbd
00000350: c4d8 02be 23c5 103e fd68 0f3d 0ca5 45bd
00000360: dd64 2fbd 01b0 ddbd f847 1dbc d04f aa3d
00000370: 3052 23bb 8e27 80be 8d99 123e 2b41 8f3d
00000380: 9bff 9fbc 2fc8 21bd c850 363e f8b5 133d
00000390: 0a70 0d3d 54ce 1dbe 9d05 853e 29a4 a9bd
000003a0: b340 363c 92ba 1fbe 6a87 1e3d be92 103d
000003b0: 9689 d63d b58f 47bc 6646 b43c f87c 2b3e
000003c0: 4e01 fd3d 05aa acbd f36b 43be 06c7 15be
000003d0: e6e8 d8bd 4b43 a13d ed5f 5abe fada 783d
000003e0: 8bd0 3b3e c304 383e 077d 473d d3fa b0bd
000003f0: f638 c73d c99e 8ebd b409 69bd 7bf5 373e
-0.018068405 0.011910207 0.01612791 -0.023750527 0.022905434 -0.025180938 0.049913976 -0.042455733
0.013388691 0.009302098 0.062302444 0.08346528 0.0061731157 0.040786304 -0.041738834 0.0065448144
-0.00797866 -0.06432563 0.017700892 -0.03454787 -0.051381018 -0.02349008 -0.019788804 -0.018955583
0.018908335 -0.07797336 -0.061345927 -0.09679826 0.08946624 0.05731685 -0.018944316 0.07028879
0.0044610077 0.018149152 0.0027647042 0.022513935 -0.010804551 0.037045337 -0.007098318 -0.033612847
-0.03385596 -0.06581301 -0.07813644 0.05945547 0.038682282 0.008330994 -0.018924665 0.0016399805
-0.020930262 -0.010551864 -0.012299209 -0.0018609134 -0.0119017055 0.035565257 -0.05385806 0.0046807393
0.008679427 -0.019299177 0.0077939415 -0.012321309 0.009958054 0.0025163766 0.053384446 -0.0341381
0.012816103 0.062760845 0.009241394 -0.0055324286 0.0515657 -0.018735569 -0.044585187 -0.012561747
-0.06354495 -0.0040668934 0.05017182 0.017200004 -0.0055015436 0.022983396 -0.038352832 0.024826964
-0.017374335 -0.018338233 -0.026049368 -0.0077662393 -0.017309662 -0.01049745 -0.011691617 0.015794676
0.041924894 0.029821316 0.0044503952 -0.136096 -0.041684594 0.060478494 0.033561308 -0.11292353
-0.00656903 0.046996657 -0.015898429 0.010503619 -0.01053493 0.027450304 -0.07872878 -0.028959118
0.023035461 0.094277374 0.07187326 0.020514762 0.028793188 0.030421028 0.046678625 0.023165414
0.04670431 0.0379828 0.004520781 0.0793496 0.016279735 -6.7868976e-05 0.04254344 -0.030621383
0.038379405 0.035874918 0.03361378 -0.0069475705 -0.047364235 -0.0012611337 -0.011240505 -0.008035003
-0.17960857 0.16906305 0.023363676 0.005172081 -0.07975624 -0.101728834 -0.05115088 0.0394709
0.07119129 -0.029300692 -0.010165483 -0.20719545 0.024492059 0.069324106 0.1747463 0.09186927
0.09894675 -0.14007747 0.20931472 -0.01514532 0.09237444 0.16164637 0.076341815 0.13502143
0.036909588 -0.015141125 -0.08914081 0.14285676 0.014536916 0.054599937 -0.07836718 -0.2840909
0.15913235 0.33275843 0.10155215 -0.017846592 0.07808746 0.029438106 0.30758372 -0.12309869
-0.021158967 -0.027121313 0.15202057 -0.28548568 0.15052868 -0.011788233 -0.06627049 0.16063583
-0.057486188 0.05714331 -0.058089778 0.04205022 -0.071506426 0.061966 0.14535679 0.06091761
0.06084999 -0.036887947 0.040028714 0.037256267 -0.20045803 0.019993942 -0.087882675 0.24434398
0.088999845 0.06613957 -0.06468958 0.114282236 0.11474121 -0.09961915 0.075294405 -0.018148433
0.113047965 0.121850826 0.02622725 0.102099806 0.0877039 0.16266851 -0.06518486 8.1693775e-05
0.15962009 -0.0999371 0.12930484 -0.034479912 -0.12778002 0.14137702 0.035012234 -0.048253104
-0.0428208 -0.10824586 -0.009599678 0.08316004 -0.0024920814 -0.25030178 0.14316387 0.06994852
-0.019531062 -0.03949755 0.17804253 0.03606221 0.034530677 -0.15410739 0.25980845 -0.08283264
0.011123824 -0.15598515 0.03870336 0.035296194 0.10475461 -0.0121802585 0.022006225 0.1674689
0.123537645 -0.08430866 -0.19084148 -0.14626703 -0.10591297 0.07874163 -0.21325655 0.060755707
0.18341272 0.17970566 0.04870322 -0.08641591 0.09727661 -0.069638796 -0.05689402 0.17964737

action_model._discrete_distribution.branches.0.bias f4 [3]
00000000: 88e8 993c 39c4 85bc cf0f 8eb9
0.018787637 -0.016328918 -0.0002709613

action_model._discrete_distribution.branches.1.weight f4 [3, 128]
00000000: a3ba 91bb ab94 f93c a29f 8fbb b9b4 6b3b
00000010: 72d2 873a ff11 f3bb 4d07 053d 9cfb a83b
00000020: 6a4a e23c 6dc3 66bc eaf7 5bbc 5b6e ca3a
00000030: 40c8 2fbc 8ab3 c63b 2ac0 87bb 9810 853c
00000040: 8cca 3d3c 45ca 703b f356 453d d091 f0bc
00000050: 658f 263b 4f9e d03b 427c 08bc f758 64bd
00000060: cbfd da3b d495 083d 3ff1 943c 54b3 1c3c
00000070: 79dd 083d bf0e a7b9 19f9 f3ba 6939 bebd
00000080: 2f22 bd3c e4ac c43c 7f43 81bd c85f 18bb
00000090: ad44 a83c f57f f93c fca2 aebc bbad c2bc
000000a0: 753c a5bc afd6 e53d 6ce4 913c 07f0 e0bc
000000b0: 53de 4fbc 3e34 a7bb bb32 363d c144 9f3b
000000c0: 49a0 7dbc 15f7 6e3d e4b3 51bd 59dc 23bc
000000d0: e901 adbc 9bd4 883a bce2 7e3d 3e47 efbc
000000e0: 4894 08bd 4c08 3bbc 2cb8 6b3c c9ef a13c
000000f0: 5642 223c b50f 0eb9 0e69 7cbd bda8 27bd
00000100: fa1b 8dbc 2d30 08bc 2664 5dbc 5c98 05bb
00000110: 8d52 a2bb fece 743c 30d4 d0bc 46fd f7bc
00000120: 9d68 d3bb 48d7 da3c b2a5 05bc d0ab 053d
00000130: 9646 963c d56b 903c d180 fe3c da63 1fbb
00000140: f0b9 a13d ad2c 1e3c 32e3 fd3a b771 713c
00000150: 3025 12bc 71cf 0ebd ff6e b23c bf0e f03b
00000160: e7b6 f7bb aa20 57bc 39f5 5bbc 9cd8 4f3c
00000170: 6e08 7a3d c83f a03d 98df 9bbc 5957 623d
00000180: 69c7 21bb 3a27 f7bb c39c 07bb 3128 3fbd
00000190: dbd2 d5bd 9ba1 e63b 0d2c f4bc 2561 d1bd
000001a0: ce4a 0ebd 54cb 353d ade7 46bd 34de 523d
000001b0: 196b 4dbc 5bf0 86bd 03d6 d83b fa52 ff3c
000001c0: 3ff2 d23c bbae 54bc 66b1 1d3d e9d6 253d
000001d0: e356 20bd f865 ccbb d6e5 a23d ed36 ec3b
000001e0: 5af9 813c 1ddc 6bbd d9c5 5f3c 6a28 bc3c
000001f0: f647 3cba 8c61 203d 1e8c 36bd 2159 f5ba
00000200: 1024 e93c 5412 523d bc7d f93d 4af5 adbd
00000210: 0cbf 813d a160 d43b d627 dabd 726c 383d
00000220: ba58 e1bd 9f47 933c 7254 ed3d 3048 02bd
00000230: ec52 333d 3015 033d 82b6 863d bf79 2abc
00000240: df93 79be e529 2abe db14 79be 742b 523d
00000250: 5ffe 393c 830d 3e3d d23d a9bc bd7a c3bd
00000260: 30d1 1a3e f4a3 80be d799 363d 8267 973d
00000270: 32ee 2fbe fcea 31bd 04de 093d bf16 803e
00000280: fdfd f13b e143 bdbd 125b 1c3d e05a 1d3d
00000290: 1a74 7abd 0f3d ccbd bea6 15be adb5 00bb
000002a0: 2142 7dbd 08dd b2be c6cb 0d3d e7ac bd3d
000002b0: a6ce 523d 8d70 fa3d bb5c 34bd 8961 1cbd
000002c0: 2378 68be d96b 1f3e 966f 2cbc 8cd9 90bd
000002d0: 9e5b 77bd 678b 3cbe f7e3 60be 76b9 b5bd
000002e0: 4660 a13d aeb6 8bbd 76e3 39bd f0e1 72bd
000002f0: 9a25 04be 5902 ac3d 1b2a a03d d3b1 82bd
00000300: 9851 e9bc 4db8 9dbc a044 81bc aac8 06be
00000310: 1db2 f4bd cfb3 893d 2a9c bb3d 5fc6 983d
00000320: 7330 353e 4897 a33d d84b b2bc be08 953c
00000330: 5715 3e3d 2889 923c 8cf0 d5bd 4da2 fcbd
00000340: b5ce d3bd 70b5 8abd 8669 04be e987 063d
00000350: 702f b93c 511f e3bd 342d 3c3d 8beb 4e3d
00000360: 0bdc 183c 91cc 94bd 5e1a 803d 0608 0fbe
00000370: abc8 48be 4677 903d ec3b a83c 3d5a 95be
00000380: 54ab 0cbd 96c5 4dbe 67fc d5bd 088c 103e
00000390: 2898 0ebe c417 7c3d 8222 33be f270 5e3e
000003a0: 3282 7d3d 1b9a 32be a93c 4abd 96e6 b9be
000003b0: d3fb fc3c 4c0e 703c 77bf 15bd 278d 9dbe
000003c0: c399 6cbd 5f86 0abe 7fd1 b7bc 4b3a 89be
000003d0: d25d ccbe c1cf c63c 8604 fcbd 49df b53a
000003e0: 7646 8abc ee92 533e 8d3f b4bd 1d31 4abd
000003f0: e8d5 8b3c 90b9 07be 9ab8 99bc 52bd af3a
-0.0044472977 0.030466398 -0.0043830434 0.0035965873 0.00103624 -0.007417917 0.032477666 0.0051569473
0.027623374 -0.014084679 -0.013425807 0.0015444265 -0.010728896 0.006063883 -0.004142781 0.016243264
0.0115839355 0.0036741656 0.048178624 -0.029366404 0.002541506 0.006366528 -0.008330407 -0.055748906
0.0066830865 0.033346012 0.018181441 0.0095642395 0.033414338 -0.0003186371 -0.0018613666 -0.09288294
0.02308759 0.024008222 -0.06311702 -0.002325045 0.02054056 0.030456522 -0.021317951 -0.023764482
-0.02017043 0.11222588 0.017809115 -0.027458204 -0.012687284 -0.0051026633 0.044481974 0.004860491
-0.0154801095 0.058341105 -0.051196948 -0.010001265 -0.021119075 0.0010439338 0.06222795 -0.029208776
-0.033344537 -0.011415552 0.014387172 0.019767659 0.009903511 -0.00013548027 -0.061623625 -0.040932406
-0.017225254 -0.008312267 -0.013512647 -0.0020385003 -0.0049536885 0.014941929 -0.025491804 -0.030272137
-0.00645168 0.026713982 -0.008157181 0.032634556 0.018344205 0.017629543 0.031067284 -0.002432099
0.07896793 0.009654206 0.0019370078 0.014736584 -0.008919999 -0.0348658 0.021781443 0.0073259766
-0.0075596455 -0.013130346 -0.013425165 0.012685921 0.061043195 0.07824665 -0.019027516 0.055259082
-0.0024685508 -0.007542518 -0.0020692802 -0.04666919 -0.10440608 0.007038308 -0.029806161 -0.10223607
-0.034739308 0.044383362 -0.048560787 0.05148144 -0.012537741 -0.06588813 0.006617309 0.031167496
0.025750278 -0.012981112 0.03849926 0.040488157 -0.03914536 -0.0062377416 0.07953994 0.007208696
0.01586597 -0.057582963 0.01365801 0.02296849 -0.0007182354 0.039155528 -0.04456722 -0.0018718579
0.028459579 0.05128701 0.12182185 -0.08494051 0.063352674 0.0064812456 -0.10652129 0.045025297
-0.110032514 0.017978488 0.11588372 -0.031807125 0.043780252 0.032002628 0.06577779 -0.010405003
-0.24372815 -0.16617544 -0.24324362 0.05131097 0.011352151 0.046399605 -0.020659361 -0.09544895
0.15118861 -0.25125086 0.044580307 0.073927894 -0.17180708 -0.04343699 0.033658996 0.25017354
0.007385014 -0.092414625 0.03817279 0.038416743 -0.06114588 -0.099725835 -0.14614388 -0.0019639537
-0.061830644 -0.34934258 0.03461816 0.09261494 0.051466607 0.122284986 -0.044033747 -0.038178954
-0.22702079 0.15568484 -0.010524651 -0.07072744 -0.060390107 -0.18412553 -0.21961962 -0.088732645
0.07879691 -0.06821953 -0.04538294 -0.059297502 -0.12904969 0.08398885 0.07820531 -0.063815735
-0.02848129 -0.01925292 -0.015779793 -0.13162485 -0.11948035 0.06723749 0.09160645 0.07459711
0.17694263 0.07987839 -0.02176468 0.018192645 0.04640707 0.017887667 -0.10446271 -0.12335644
-0.103421606 -0.06772888 -0.12930879 0.032844458 0.022605628 -0.110899575 0.045941547 0.0505176
0.009329806 -0.072655804 0.06255029 -0.13967904 -0.19607799 0.070539996 0.020536385 -0.2917041
-0.03434308 -0.20094904 -0.104485326 0.14115918 -0.1392523 0.061546102 -0.17493632 0.21722773
0.061891742 -0.17441599 -0.049374256 -0.36308736 0.030881798 0.014651846 -0.03655955 -0.30771753
-0.057763826 -0.13527821 -0.022438763 -0.26802287 -0.3991533 0.024268987 -0.1230555 0.0013875748
-0.016879302 0.20661518 -0.08801184 -0.049363244 0.017069772 -0.1325438 -0.018764783 0.0013407862

action_model._discrete_distribution.branches.1.bias f4 [3]
00000000: cc54 093c 552a 933d d718 a9bd
0.008382034 0.071858086 -0.08256691

exp_avg f4 [128, 9]
00000000: 31f1 b4b8 e9f5 0eb8 34e6 9dba b49c 1039
00000010: d8b3 27b7 a98b b9b7 bd26 88b7 f8f6 a5b9
00000020: e835 8fb9 8d87 9f39 aa20 aab9 aa23 273b
00000030: e0d1 0dba 2ad2 52b7 776d 80b8 16cd bcb8
00000040: bf72 36ba f395 913a e8bb 4f39 0b24 e637
00000050: c8ab 983a c76b 4038 3403 52b7 e8bf cdb8
00000060: 3266 51b9 e7bd 5db8 4c10 6ab8 a4e5 18ba
00000070: 8e5e 6a38 eb66 2a3a d939 29b9 e858 2737
00000080: b22a 0fb9 1254 97b9 49f3 8ab9 c571 a839
00000090: fa51 54b9 6e33 3bb9 e805 f83a d11e b4b8
000000a0: da62 37b7 105e 97b9 ab0d 06ba f2bd 48ba
000000b0: 6ae7 4339 d5ea 48ba 80ac 2bb9 bf93 363a
000000c0: 177f a7b8 24b1 dab7 fd6f 9cb9 e1cd 19ba
000000d0: 5d03 d8b8 92eb 3e39 5d21 f9b9 98be 7a38
000000e0: 3d8a 973a ab91 10b9 1994 b436 0ef3 0db9
000000f0: 0d59 96b9 371a f6b8 21b3 9939 547a 0cba
00000100: e5ae 5138 c3a4 4cb9 7e63 3f39 ca90 5eb6
00000110: 1530 f7b8 4caa 75b9 5de5 a938 2249 c3b9
00000120: d487 2139 e9db 98b9 410f 8a3a 7cc8 c139
00000130: 54ca 9e37 62cd adb8 f804 3db9 5c73 3537
00000140: f693 41ba c708 fcb8 f3ac 86b5 8522 6eba
00000150: 2613 f738 08a3 8a36 89a3 dc37 5eb2 6838
00000160: cbcb 8239 8923 67b9 c216 00ba 776e 47b7
00000170: f883 bf39 36c3 2339 48d8 71b7 7aa4 8db9
00000180: 874c 0cba 22d3 5e37 8706 99b9 6877 76ba
00000190: 871c d4b8 9815 613a d9a8 6439 d5bf 4736
000001a0: 2a14 7ab8 bdea 16b9 4045 48b9 5ba5 feb9
000001b0: 4e10 5839 c974 63b7 faaa 043a e1a3 9136
000001c0: e5b2 c536 51cd d838 60da 4c39 de22 0a39
000001d0: ce0e 7635 723c 04ba df47 4e39 1c45 97ba
000001e0: 6b81 ba39 d5e8 df37 cdda 9739 7e78 0c3a
000001f0: 7854 ceb8 beed 3bba 7685 2bba 22ad 3cb8
00000200: b9d9 66ba 7ce4 c137 cb05 1037 46ae 1238
00000210: 69fa 4d38 07da 4639 4e12 6ab7 b453 f5b8
00000220: 2c06 bc38 3691 083a 06ee b9b8 5f03 9ab7
00000230: 29a8 a837 9b93 5938 6391 b7b9 dcea 7b39
00000240: 3125 3738 9aba b038 da72 89ba d814 a8b8
00000250: d286 ff36 8055 f238 614b 8339 22c1 8238
00000260: c689 4f39 dc0c c239 d1b1 16b9 62d3 e337
00000270: fc5f 73b8 c8f6 3236 f602 7538 daa3 ee38
00000280: ddc2 3fb9 b564 e238 f267 9639 4d95 4eb9
00000290: 60d9 5f3a 4398 6039 6587 9237 803f c838
000002a0: 8667 2c39 9e24 3239 57cb d2b9 948e 0cb9
000002b0: 54cb 2838 3551 19ba 32db 0539 c97c 2737
000002c0: 1082 25b8 0633 aeb8 dcb3 63b9 658b 86b9
000002d0: 88b2 d5b9 7e22 6938 5c5f c139 4297 4839
000002e0: 6957 83b5 cebb b1b8 a3e5 27b9 9ab9 2c36
000002f0: 8b57 d3b9 6dff 45ba 20da 3d39 c7db ebb9
00000300: 7b75 4b39 d768 8736 6f9e 8d39 7db0 013a
00000310: d1cc 3a39 19da ccb9 2b9c 78ba 3d42 19b8
00000320: 0f49 9c3a 444e 1439 c139 c6b6 50e7 54b9
00000330: 44c6 dfb9 96cd 95b9 fc1a 78b9 38bd 1eba
00000340: e0e4 4c39 1272 fcb9 e7ae 8039 42be 5238
00000350: 8f91 5539 a3f5 9e39 6775 c3b8 d2d7 0bba
00000360: ddac 7239 71b2 b038 9d9d 71ba 306c 0739
00000370: 7c38 1137 0d17 3338 c841 cf38 a568 e839
00000380: ffe7 96b9 da20 c8b9 46a4 3b37 afec 3e3a
00000390: d390 03b7 e8d6 15b6 6ea6 12b9 70c5 8cb9
000003a0: 0737 283a d130 8038 99c8 28b9 8363 7e38
000003b0: 7c07 58ba f983 bc39 03e1 8736 9d9f 1139
000003c0: 78db 9039 c0b8 41b8 c976 38ba c7ff 66b9
000003d0: ae71 c838 2a1b 2aba 0392 6039 b3ae b734
000003e0: 2715 9ab8 d710 20b9 d952 4939 8c0a e4b9
000003f0: fbea 30ba 78cf 91b8 ca10 6639 9c1c 0bba
-8.627994e-05 -3.408446e-05 -0.0012046755 0.00013791287 -9.995849e-06 -2.2118753e-05 -1.6230502e-05 -0.00031655258
-0.0002731525 0.00030427836 -0.00032449263 0.0025503435 -0.0005409997 -1.2565908e-05 -6.123905e-05 -9.002739e-05
-0.00069598475 0.001110731 0.00019811059 2.743492e-05 0.0011647874 4.5876743e-05 -1.2517721e-05 -9.810907e-05
-0.00019969864 -5.2867366e-05 -5.5805125e-05 -0.0005832559 5.587801e-05 0.00065003213 -0.00016138646 9.974676e-06
-0.00013653448 -0.00028863602 -0.00026502673 0.00032128222 -0.00020248434 -0.00017852869 0.0018922659 -8.588809e-05
-1.0930666e-05 -0.00028871046 -0.0005113731 -0.00076576986 0.00018682858 -0.0007664387 -0.00016372092 0.0006964765
-7.986853e-05 -2.6070113e-05 -0.00029838076 -0.0005867165 -0.00010300309 0.00018207569 -0.00047517839 5.978215e-05
0.0011561584 -0.00013787176 5.381659e-06 -0.00013537353 -0.00028676577 -0.00011735077 0.00029315896 -0.00053588045
4.9992366e-05 -0.00019516335 0.00018252243 -3.3164856e-06 -0.00011786834 -0.00023428461 8.10127e-05 -0.00037247787
0.00015404756 -0.00029155545 0.001053311 0.000369612 1.8929284e-05 -8.2875384e-05 -0.00018026296 1.08153e-05
-0.00073844136 -0.00012017931 -1.0034113e-06 -0.00090841233 0.000117814445 4.1317e-06 2.6302196e-05 5.5479228e-05
0.0002494737 -0.00022043115 -0.00048862037 -1.1887044e-05 0.00036528683 0.00015617613 -1.4415076e-05 -0.0002701616
-0.00053519796 1.3281389e-05 -0.00029187297 -0.0009401948 -0.000101142614 0.00085862866 0.00021806675 2.9764972e-06
-5.9623424e-05 -0.00014392562 -0.00019099284 -0.00048569855 0.00020605439 -1.35574455e-05 0.0005060878 4.3404148e-06
5.8918836e-06 0.00010337926 0.00019536307 0.00013173695 9.1663685e-07 -0.00050444074 0.00019672465 -0.0011540982
0.00035573108 2.6692092e-05 0.00028963984 0.0005358531 -9.838579e-05 -0.000716891 -0.00065430196 -4.4983935e-05
-0.0008806247 2.311379e-05 8.584418e-06 3.4971417e-05 4.910902e-05 0.00018963973 -1.3951749e-05 -0.00011698101
8.965688e-05 0.00052096264 -8.865823e-05 -1.83598e-05 2.0105466e-05 5.18743e-05 -0.00035012802 0.00024024717
4.3665237e-05 8.427091e-05 -0.0010486499 -8.014747e-05 7.6152874e-06 0.00011555385 0.0002504243 6.234857e-05
0.00019792383 0.00037012144 -0.00014371357 2.7158942e-05 -5.8025107e-05 2.6667713e-06 5.841531e-05 0.00011379244
-0.00018287772 0.00010795278 0.00028687675 -0.0001970131 0.00085391663 0.00021419027 1.7467604e-05 9.548571e-05
0.00016441764 0.00016989044 -0.0004020582 -0.00013404555 4.0243685e-05 -0.00058485876 0.00012765525 9.9830295e-06
-3.9460196e-05 -8.3064704e-05 -0.0002171541 -0.0002566233 -0.00040759542 5.5583652e-05 0.00036882877 0.00019129834
-9.7857e-07 -8.474999e-05 -0.00016011907 2.5738032e-06 -0.0004031028 -0.0007553015 0.00018105702 -0.0004498644
0.00019403354 4.0355185e-06 0.00027011658 0.0004947258 0.00017814642 -0.00039072408 -0.000948372 -3.653973e-05
0.0011923629 0.00014143536 -5.9075833e-06 -0.00020304066 -0.00042681594 -0.00028572668 -0.00023661176 -0.00060554175
0.00019540219 -0.00048150175 0.00024544375 5.0245093e-05 0.00020367488 0.00030319122 -9.3201925e-05 -0.0005334589
0.00023143315 8.425571e-05 -0.00092169066 0.00012914906 8.655825e-06 4.2698393e-05 9.882782e-05 0.00044328455
-0.0002878308 -0.0003817145 1.11843165e-05 0.00072831934 -7.841928e-06 -2.2327822e-06 -0.00013985645 -0.00026849983
0.0006416891 6.1126084e-05 -0.00016096457 6.0650997e-05 -0.00082408614 0.00035956482 4.0495083e-06 0.00013887738
0.00027629337 -4.6186848e-05 -0.00070367433 -0.00022029794 9.557918e-05 -0.0006489033 0.00021416698 3.4213517e-07
-7.347232e-05 -0.00015265062 0.00019199717 -0.00043495407 -0.0006748882 -6.952783e-05 0.00021940764 -0.00053066923

exp_avg_sq f4 [128, 9]
00000000: d1e5 8c35 d475 1734 d3b8 1a37 b1af 0b35
00000010: 356a 0230 68b5 ac34 f3a2 af35 a339 9035
00000020: f9c7 0b36 64c7 1037 670e 4735 c5a7 5638
00000030: 3bd2 0836 2e05 da30 916e 9435 76c2 9636
00000040: d9af 7a36 c6d5 0837 1428 f636 5960 c834
00000050: 1acd c037 ee01 8135 5a65 8430 963b 3735
00000060: 283a 3a36 dbec 0b36 cdf2 8036 1fde 4736
00000070: d394 6b34 1139 c537 a2db 9335 4f67 8e30
00000080: 433c c534 e70f c935 b928 aa35 924a 9236
00000090: 289a b937 8825 9035 1a07 9538 1789 2b36
000000a0: e246 2331 0079 fc35 6586 fd36 5c70 9d36
000000b0: 9404 2b37 9887 fe36 79ed 4535 a1f4 8e38
000000c0: 8d7b 6c36 4cf1 4131 4bd6 a235 ff92 a436
000000d0: 67ea 6c36 f901 6b37 59bc 7b36 da49 9834
000000e0: 7f59 d937 e683 9735 ffa5 7330 2ced df34
000000f0: 95f1 e135 277a de35 4480 9636 21ad a536
00000100: 80d6 4534 b050 3737 ff98 b034 3a1d 1a30
00000110: 1535 c534 ba2a c435 8476 1435 68b4 b135
00000120: 7d4c ee36 3303 c034 efa6 fa37 35e6 5f35
00000130: f85a 5730 e89e dc34 7c05 dc35 b88f d035
00000140: 60af 5f36 8c5f c336 fb1e b334 41ec e737
00000150: 51ed 3935 50d9 8330 1ef7 fd34 a8ba fe35
00000160: 9dc8 b435 29b0 3936 d6b1 4f37 ece7 f835
00000170: b091 8c39 f1e1 2137 26d6 0832 248f 5636
00000180: b33e 5c37 e020 7f37 684f 1f38 604f 3b37
00000190: 95a3 3135 48e1 3538 0285 f535 3c9b e930
000001a0: 92c3 9135 d815 9336 3d80 6836 3394 f436
000001b0: 4b3c c237 e479 5835 17eb 6038 dd64 ed35
000001c0: 3e30 1c31 0796 0936 135e 0a37 69ed 3d36
000001d0: c8fd ec36 6f44 7d37 9c65 9835 9e14 0239
000001e0: cfa5 5936 4ce9 1a31 5888 cb35 145e cd36
000001f0: 14a6 b336 845a 5837 6262 3e36 13f8 8534
00000200: 274e be37 2581 8735 cbb7 7d30 8b0d f934
00000210: cd9e fd35 6f01 df35 26f9 8636 441b 4436
00000220: 6ecb 8834 691d 9d37 456a 1b35 980b 0830
00000230: 519d 9234 5f4b 9635 3429 bc35 0eaf 1a36
00000240: 3b5d c336 170b ab34 664d f737 842f 7c35
00000250: 8f47 6630 1f2f d934 2533 da35 a861 c535
00000260: 45d6 7c36 f1b9 0137 0fb3 8f34 259b 7137
00000270: 8a49 0635 5bba f02f 07f7 b134 192e b135
00000280: 6ea8 7335 26cd 0636 2578 0b37 b386 fe34
00000290: 0f2b 3738 d862 5235 47f4 5f30 dc1e 3035
000002a0: f26f 2f36 b806 0936 2eb7 5336 9c23 0137
000002b0: 57ec f934 75b3 3938 d3f6 c435 c133 a830
000002c0: 386c 6135 2caf 6536 1d35 0836 cef4 c336
000002d0: 3215 9d35 78be 8133 2d7f 7036 9b59 f733
000002e0: 7e7b 3f2f 74aa d033 3a81 d134 d1fc bd34
000002f0: 5568 fb34 f801 7536 1a35 e334 3d73 2e38
00000300: 8154 ec35 1362 f430 7161 3a35 2e69 3e36
00000310: 0966 3236 c1d8 e936 0667 a336 c58d c434
00000320: 1a24 1c38 a8f4 1d35 bb4d b230 ae12 1835
00000330: 489d 1936 b550 0336 5d3f 1d36 7d8c 3237
00000340: 3e27 ad35 7fc3 0439 0c2d 6c36 9da6 5931
00000350: 0445 0c36 aabb 0f37 e95e fd36 d62e 6a37
00000360: 7033 8a37 2e2f 2f35 32b4 8638 71de 0736
00000370: 876a 0731 9abc b235 5dab b436 57f3 4436
00000380: cc73 0737 0835 cd36 143d 8335 9ca5 1839
00000390: 271d d336 3b74 b531 2d79 e135 3332 e736
000003a0: aac5 0c37 2722 d037 5bd3 ed35 53f5 2034
000003b0: 2628 3337 5b84 1835 6407 ea2f 0d95 4a34
000003c0: c158 4d35 4007 3135 50d9 1736 9450 ca36
000003d0: 14a1 5934 ff63 5e37 7e56 9734 5240 f02f
000003e0: 4e1b 9a34 17fb 9935 3116 3435 c177 9735
000003f0: 82db 6436 e403 be34 5c5f e437 365c 4835
1.0497698e-06 1.4105836e-07 9.222148e-06 5.20372e-07 4.7444654e-10 3.2169487e-07 1.308594e-06 1.074561e-06
2.0829013e-06 8.629493e-06 7.4154235e-07 5.1177823e-05 2.038795e-06 1.586306e-09 1.1059038e-06 4.4929866e-06
3.735526e-06 8.156005e-06 7.336037e-06 3.7323005e-07 2.2983691e-05 9.611811e-07 9.63307e-10 6.825952e-07
2.7750011e-06 2.0850482e-06 3.842963e-06 2.9782602e-06 2.1940222e-07 2.3510804e-05 1.1016275e-06 1.0361222e-09
3.6737956e-07 1.4980295e-06 1.2677839e-06 4.35982e-06 2.2125503e-05 1.0739759e-06 7.1061964e-05 2.5560782e-06
2.3759914e-09 1.8810679e-06 7.555633e-06 4.692045e-06 1.019346e-05 7.585575e-06 7.3733787e-07 6.816653e-05
3.5238656e-06 2.8222358e-09 1.2132308e-06 4.9046935e-06 3.530318e-06 1.4007551e-05 3.7511547e-06 2.836594e-07
2.591009e-05 1.1288764e-06 8.863878e-10 4.1709552e-07 1.6834116e-06 1.657584e-06 4.4852804e-06 4.937538e-06
1.842509e-07 1.09264365e-05 3.2893874e-07 5.6066407e-10 3.6732732e-07 1.4615573e-06 5.530676e-07 1.3240033e-06
7.101857e-06 3.5765115e-07 2.9880057e-05 8.340897e-07 7.834582e-10 4.1093813e-07 1.6392873e-06 1.5539035e-06
3.3331671e-06 5.822576e-06 3.336389e-07 2.764736e-05 6.926321e-07 9.593268e-10 4.7304724e-07 1.8978799e-06
1.3469431e-06 2.7669687e-06 1.2379567e-05 1.8544938e-06 0.00026811427 9.648954e-06 7.964934e-09 3.1971804e-06
1.312762e-05 1.5206839e-05 3.7982507e-05 1.11645495e-05 6.617568e-07 4.3363572e-05 1.8292633e-06 1.6997102e-09
1.086026e-06 4.3834843e-06 3.4645338e-06 7.2890193e-06 2.3154678e-05 8.0643645e-07 5.3624706e-05 1.7687231e-06
2.272841e-09 2.0501918e-06 8.247344e-06 2.8301386e-06 7.062892e-06 1.5095909e-05 1.1354455e-06 0.00012405447
3.2432033e-06 2.2542563e-09 1.516436e-06 6.120428e-06 5.3539497e-06 1.2895678e-05 2.8369473e-06 2.4953678e-07
2.2686158e-05 1.009587e-06 9.230205e-10 4.6389718e-07 1.8896186e-06 1.6615212e-06 4.022516e-06 2.9222147e-06
2.547999e-07 1.8729554e-05 5.789664e-07 4.949299e-10 2.7309082e-07 1.1197807e-06 1.4019083e-06 2.3049683e-06
5.8223063e-06 3.18593e-07 2.9480736e-05 9.394646e-07 8.3775203e-10 4.0453685e-07 1.6257151e-06 1.4706065e-06
3.7675647e-06 7.732292e-06 2.6766108e-07 1.4400842e-05 5.0025903e-07 4.378816e-10 3.3148555e-07 1.3200944e-06
9.076965e-07 2.0086968e-06 8.313019e-06 4.7409193e-07 4.36707e-05 7.8374933e-07 8.1474066e-10 6.5610016e-07
2.6142193e-06 2.0418502e-06 3.1548075e-06 7.69729e-06 4.6551824e-07 4.427457e-05 1.4674973e-06 1.2238318e-09
8.397651e-07 3.4225623e-06 2.0296495e-06 5.839952e-06 1.170358e-06 6.041677e-08 3.5836813e-06 1.1518133e-07
1.7415222e-10 9.71676e-08 3.9023308e-07 3.5387941e-07 4.6828305e-07 3.650899e-06 4.232068e-07 4.1592157e-05
1.7607964e-06 1.7781211e-09 6.9432195e-07 2.837343e-06 2.658346e-06 6.9691746e-06 4.869772e-06 3.6610996e-07
3.722692e-05 5.884308e-07 1.2973297e-09 5.6651595e-07 2.2890326e-06 1.9567499e-06 2.3431705e-06 1.0642337e-05
1.2900925e-06 0.00012661329 3.5192961e-06 3.1672365e-09 2.0901798e-06 8.567158e-06 7.5510366e-06 1.3958392e-05
1.6474834e-05 6.5261236e-07 6.423182e-05 2.0246046e-06 1.970564e-09 1.3316924e-06 5.3843673e-06 2.9347918e-06
8.073588e-06 6.1156497e-06 9.778037e-07 0.00014557544 6.291684e-06 5.281007e-09 1.6799073e-06 6.8901804e-06
8.3906725e-06 2.4811436e-05 1.7719389e-06 1.499041e-07 1.0678579e-05 5.6817015e-07 4.2569603e-10 1.886694e-07
7.6497605e-07 6.594819e-07 2.2627246e-06 6.0294497e-06 2.02683e-07 1.3255513e-05 2.8188873e-07 4.3701448e-10
2.8704602e-07 1.1472465e-06 6.708752e-07 1.128523e-06 3.4102418e-06 3.539309e-07 2.7224123e-05 7.463999e-07

exp_avg f4 [128]
00000000: 3765 3eb8 0ddc e2b9 4e58 1938 d6ef 9c38
00000010: 34ae 79b9 07d2 64b9 e20d a738 b2a8 8c38
00000020: 0fca cbb9 d1f0 deb5 243e 89b7 ed76 0db9
00000030: 3ba7 98b7 a78d 8939 245b 7db8 3fc9 fa38
00000040: beb2 eb38 d4d1 48b9 ebbc 89b9 2336 6138
00000050: 5a07 9a38 ffdb 7e39 b4d3 46b8 bba2 8839
00000060: b751 eb38 aa21 7437 a8b0 a938 0c95 0539
00000070: ed1c c2b8 e87e 8fb8 b525 54b8 dfe8 9539
00000080: 6eca 1739 cf1c 1638 d8db aa38 d0bd 9cb8
00000090: 672a 59b9 2a8d 15b9 ccb3 ebb7 589b 24b9
000000a0: 0e05 9cb8 f6d1 22b8 e995 5938 2f1a 1639
000000b0: 1c0e 93b6 6989 1cb6 a708 9039 1637 4b39
000000c0: 4787 c338 064a 34b9 2dd0 1939 182e bab7
000000d0: 1295 7fb8 9663 8837 f47c 1cb9 6541 05b9
000000e0: cc57 7239 1063 e939 6e7f 89b8 2eb4 bf38
000000f0: 4d93 43b9 c003 7039 7480 8438 5472 a0b7
00000100: a5fa 3137 c185 99b8 13d2 dfb7 8c07 19b9
00000110: 33e7 8838 ba2e 2ab9 2635 0338 04a7 4a37
00000120: facc 1b39 32ed 2ab7 0f65 ba38 b3ca 2339
00000130: 1d47 5b39 0236 d3b7 a87e 0fb9 7e4b af37
00000140: 8a16 72b8 aca9 43b4 6e33 c6b8 f63d 8739
00000150: 91df 8639 d0bc 5638 74f3 4ab8 c66d dab8
00000160: 01fa dcb9 b2ed 4139 a585 8639 40a9 29b8
00000170: 939d c6b8 5d01 62b9 cdd0 57b9 40f7 36b9
00000180: 73c5 e439 bfcf 0f39 46e8 8239 0f46 d0b8
00000190: 9ac3 9db8 8829 8039 4a40 6838 90ae 7837
000001a0: 9501 0338 c6be ec37 ada6 1e39 74c3 5739
000001b0: 8803 0239 d67d 1439 0eb0 1f38 811e a0b8
000001c0: 3962 4d39 64f1 7ab9 cf2c 4bb9 aeb3 2ab9
000001d0: 1f3f 3237 e2f1 92b9 7ccf d4b8 c774 413a
000001e0: 492b 36b9 a556 76b9 d40d a538 dcae aa39
000001f0: 87ad 14b9 bb4a cab8 f1a5 5739 5841 c7b8
-4.5393794e-05 -0.0004327003 3.6560283e-05 7.4833326e-05 -0.00023811386 -0.00021822016 7.9657664e-05 6.707142e-05
-0.00038869723 -1.6610376e-06 -1.636061e-05 -0.00013491111 -1.8197685e-05 0.00026236215 -6.0404782e-05 0.00011958414
0.000112389665 -0.00019151653 -0.0002627143 5.36946e-05 7.3446616e-05 0.00024305283 -4.7404043e-05 0.00026061185
0.00011220894 1.4551371e-05 8.091453e-05 0.00012739393 -9.256029e-05 -6.8424095e-05 -5.0579856e-05 0.00028592997
0.00014475893 3.5789617e-05 8.147181e-05 -7.474015e-05 -0.00020710529 -0.00014262335 -2.8097907e-05 -0.00015698129
-7.439601e-05 -3.881935e-05 5.1876446e-05 0.00014314869 -4.382584e-06 -2.3325795e-06 0.00027472267 0.0001938011
9.323522e-05 -0.00017193714 0.00014668769 -2.2194392e-05 -6.093557e-05 1.6258837e-05 -0.00014923868 -0.0001270823
0.00023111625 0.0004451503 -6.556405e-05 9.141151e-05 -0.00018651523 0.0002288958 6.318177e-05 -1.9126725e-05
1.060838e-05 -7.320522e-05 -2.6681495e-05 -0.00014594028 6.5280496e-05 -0.0001622987 3.1282332e-05 1.2079025e-05
0.00014858312 -1.0188016e-05 8.887995e-05 0.00015620403 0.0002091196 -2.517831e-05 -0.00013684726 2.089678e-05
-5.7718287e-05 -1.8222516e-07 -9.450955e-05 0.0002579537 0.00025725042 5.119742e-05 -4.8387286e-05 -0.00010415497
-0.00042147937 0.00018494463 0.00025658045 -4.0450366e-05 -9.470726e-05 -0.00021553547 -0.00020581782 -0.0001744898
0.0004363466 0.00013714934 0.0002496859 -9.931262e-05 -7.522777e-05 0.00024445006 5.5372984e-05 1.4822595e-05
3.1234307e-05 2.8222228e-05 0.00015130146 0.0002057681 0.00012399082 0.00014161257 3.8072518e-05 -7.635076e-05
0.00019586914 -0.00023931783 -0.00019376281 -0.000162794 1.0624323e-05 -0.00028027507 -0.00010147595 0.0007379767
-0.00017372998 -0.00023492666 7.870389e-05 0.00032555207 -0.00014179024 -9.64603e-05 0.00020565816 -9.501231e-05
